handwriting_recognition/vivid/model.pth (torch, 114293 bytes, 16 tensors)

stn.localization_convs.0.weight f4 [8, 1, 7, 7]
00000000: 84ad cb3d e531 bfbc fb17 e23c 5790 c73d
00000010: 8ac8 99bd 32a5 553d e0b5 e2bd fc97 f83c
00000020: afd7 db3b 832c 21bd e3e7 9bbd a31d d0bc
00000030: 715f d13d 76d9 d7bd 53b6 223c bbfc 6fbd
00000040: b7ac f5bd 69ae 29be aa5d 9d3d 91f9 c33d
00000050: c3cd e7bd a9ab 29bd ca2a cebd 9d51 18be
00000060: 33d3 4abd 332d a73d 1922 ab3d be65 84bb
00000070: 60f8 d4bd 5823 7fbb 181f 30bd 5c28 253e
00000080: 7279 eb3d 7942 e7bd ec72 04be 9a43 a3bd
00000090: bd99 a73d 3c4a f438 11e2 da3d 45e1 c3bd
000000a0: 5a6b 873c a204 02be 4c0f 55bc ac4e d0bc
000000b0: f13f a9bd 6535 8c3d a864 f5bd b2d6 d0bd
000000c0: 31b7 28be 57f5 673d 9668 adbb 604d 013d
000000d0: 5d09 033e 881c 8fbd 3a3c 833d cb03 d43d
000000e0: ff5f 9a3c 0b27 2a3d bb33 013e 71f3 babc
000000f0: 12d4 c2bd 2f48 c03d 41d6 d93d 0502 0d3e
00000100: 705f 223d 641c 6fbd 9af0 c5bc 2f5a 6d3d
00000110: e351 bcbd df9f cbbd 689a 84bc 2efd 10bd
00000120: eabf 653d 3619 863d 9e56 e63d 5dfc 3e3b
00000130: 736f 7d3b 670e 95bb a06e fabb 00b2 993d
00000140: 94dc 10be 606b 4ebe 47e9 fbbd 55ce 3abe
00000150: 438e 0cbe 40cd 1abe 8097 76be f0d4 3abd
00000160: d5ee f1bd a1de 89bd 8430 87bd 16fb babe
00000170: f78e 04be fda5 b7bd 4c72 27be b789 8fbd
00000180: f435 d03c 6d3d cabd 3404 983b fc24 753c
00000190: ee26 1f3e d7d1 b43d 686f 1b3b f170 b1bd
000001a0: debf e8bd 2cff 2fbe c9b5 5b3d 2934 8fbc
000001b0: 6f0c 173e 356d 393d e358 4fbb 983b d83d
000001c0: 480f 99bc 4703 6abd 6313 e6bb 4274 363d
000001d0: 765f 0f3e 6b4e 9a3d 5e9f 86be ac5b 16be
000001e0: 25da 7ebd b114 d6bd e7fe 553e a20f af3c
000001f0: 8a8a b33d 65d8 54be d62b 26be 0480 fbbd
00000200: 482b 23bd fc99 443e a316 6dbd 4e03 8f3d
00000210: 9e85 24bc b8e2 66bd 472d c4bd e787 843c
00000220: 0343 553c a7ca 213d c67f 7abb 0500 febd
00000230: 5f4f e6bc 8dcf f9bc 0eed 55bb 2fc1 ad3a
00000240: 33d5 7e3c 2706 793d 918c a9ba 4b6f 1d3d
00000250: b811 c739 ffa3 dfbc 0a87 17be 707e 223c
00000260: 1cde 5abd 61e5 92bd 5910 26be 20e6 18be
00000270: 0234 02be 3242 13bd 7868 f93c 89cc d8bd
00000280: 13d9 86be 62e3 f8bc 68e9 a7bc e148 9e3d
00000290: d54e 6fbc 2cfc 143c fd52 7abd 5557 4cbd
000002a0: 6b36 09be 7e76 dbbd eb22 40bd 7831 2a3d
000002b0: ac83 0f3d 113c 673e 37aa 673e 8f0f b03d
000002c0: fb28 9e3d ae10 0e3d 22ac 8fbd 6906 253e
000002d0: 0b11 123e a55c 233e 5760 dfbd ffe3 993c
000002e0: 4677 31bd 6e89 793d 5a77 30be f31e 55be
000002f0: c993 4fbd 3a4f e0bd 46f1 16bc 1ce0 31be
00000300: 123e 7fbe b914 16be a8a9 60bc a002 a6bd
00000310: 2aef 3e3d c75b 553d f3ec 4d3e f857 3bbd
00000320: 6a82 8e3a c918 04be 9952 503d 8921 8dbd
00000330: 4e93 823d 9436 4b3d c7c9 d53b 1c5a 94bd
00000340: be25 6abc db9d d83d 48eb 62be a4e7 913c
00000350: cd23 61bd 478f 1a3e 8d37 ef3d e15d 723d
00000360: 6d4e 113e a238 a1be dc15 50bd 03ba e93d
00000370: cfb8 56bd 80a0 023e 26a6 60bd 6306 7bbd
00000380: 9cb8 dbbd 6952 7fbe 7711 41be 36d6 ffbc
00000390: b40b b53d 8407 473e ddde 5d3d f479 83be
000003a0: 39b6 2cbd b4a9 43be 9522 65be abfc 4bbe
000003b0: 2b7c 2cbe 67ea 0d3d e4a7 2b3d c178 c1bd
000003c0: 6eb9 ebbd fac4 04be 22a7 b3bd 2e2c adbd
000003d0: ae26 3bbe f6df 50bd 037b edbd 0a8d 15be
000003e0: 5679 39be a3bc 973d d5a3 1c3c 77c5 06be
000003f0: 90e9 893d b639 103e c363 3d3c eb04 1ebd
0.09945205 -0.023339221 0.027599325 0.097443275 -0.07508953 0.052159496 -0.11069846 0.03034591
0.006709061 -0.03934909 -0.07612588 -0.025404757 0.10223282 -0.10539524 0.009931165 -0.058590632
-0.11995833 -0.16570438 0.076838806 0.095690854 -0.11318543 -0.041423474 -0.10066755 -0.14874883
-0.04951782 0.08162918 0.08356113 -0.004040449 -0.10398936 -0.0038930979 -0.042998403 0.16128677
0.11497773 -0.112919755 -0.12934464 -0.07971878 0.0818362 0.00011648654 0.1068765 -0.09564451
0.016530681 -0.1269708 -0.013004135 -0.025428139 -0.08264149 0.06846122 -0.11982089 -0.101972
-0.16476132 0.05663046 -0.0052920086 0.03156793 0.1279654 -0.06987864 0.06407972 0.10352286
0.018844603 0.04154114 0.1261739 -0.02282116 -0.095131055 0.09388768 0.10636569 0.13770302
0.039641798 -0.058376685 -0.02416258 0.057947334 -0.09195306 -0.09942602 -0.016186908 -0.0353977
0.056091227 0.06547777 0.1124699 0.002914212 0.0038671165 -0.004548836 -0.007642582 0.07504654
-0.14146644 -0.20158148 -0.123003535 -0.18242772 -0.13726144 -0.15117359 -0.2408123 -0.04561323
-0.11813132 -0.06731916 -0.066010505 -0.36519688 -0.12945162 -0.089672066 -0.16352195 -0.07008689
0.025416352 -0.09874997 0.004639173 0.014962431 0.15542194 0.08829086 0.0023717526 -0.0866412
-0.11364721 -0.17187184 0.05364016 -0.017480927 0.14750837 0.045270164 -0.0031638674 0.105582416
-0.018684044 -0.05713203 -0.007021354 0.044544466 0.14001259 0.07534488 -0.26293463 -0.14683408
-0.062219758 -0.10453165 0.20898019 0.021369759 0.087666586 -0.20785673 -0.1622766 -0.122802764
-0.039836198 0.19199365 -0.057882916 0.06983052 -0.010041622 -0.05636856 -0.095789485 0.016178085
0.013016465 0.039499905 -0.0038223132 -0.124023475 -0.028114019 -0.030494476 -0.0032642516 0.0013256426
0.01555376 0.060796883 -0.0012935569 0.038436215 0.0003796944 -0.02729988 -0.14797607 0.00991784
-0.053434476 -0.07172657 -0.16217174 -0.14931536 -0.12715152 -0.0359518 0.030445322 -0.10585887
-0.2633749 -0.030381862 -0.020497039 0.07728744 -0.014606197 0.009093326 -0.0611143 -0.049887974
-0.13399665 -0.1071596 -0.0469083 0.041551083 0.03503768 0.22581507 0.22623526 0.085967176
0.0772266 0.034683876 -0.070152536 0.16115727 0.14264314 0.1595331 -0.10907047 0.018785475
-0.04332664 0.06092208 -0.17233029 -0.20812587 -0.05067805 -0.10952611 -0.0092127975 -0.17370647
-0.24926022 -0.14656343 -0.013712324 -0.081059694 0.046614803 0.05208948 0.2010992 -0.04573819
0.0010872607 -0.1290008 0.05086002 -0.06891162 0.063757524 0.049612597 0.006524298 -0.072437495
-0.014291225 0.105769835 -0.22160065 0.01781065 -0.054965783 0.15093718 0.11680517 0.05917156
0.14190073 -0.3148852 -0.050802097 0.11412432 -0.05242234 0.12756538 -0.05484595 -0.061285388
-0.10728571 -0.2493378 -0.18854319 -0.031230073 0.08840123 0.1943646 0.054167617 -0.2567898
-0.04216597 -0.19107705 -0.22376473 -0.19920604 -0.16844241 0.03464737 0.04190816 -0.0944686
-0.11509977 -0.12965766 -0.087721124 -0.08455692 -0.18276474 -0.050994836 -0.11595728 -0.14604583
-0.18112692 0.074090265 0.009560545 -0.13161264 0.06734002 0.14084515 0.01155943 -0.03857891

stn.localization_convs.0.bias f4 [8]
00000000: e8f0 29be 17e0 aebe 0e99 d0be 59fb a6be
00000010: a1c2 9ebe 2c3b 7ebe 11f2 49bd bd21 12be
-0.16595805 -0.34155342 -0.4074177 -0.32613638 -0.31007865 -0.2482726 -0.04930312 -0.14270683

stn.localization_convs.3.weight f4 [10, 8, 5, 5]
00000000: 8d55 033d b932 153e b97d f73d 1079 333d
00000010: f347 7b3d a51e 5b3d bc5e 243d 0843 edbc
00000020: 70fa 653d 94d4 6bbd 4661 c4bb 0f63 08bd
00000030: 938c 9c3d df2a 3ebd 10b2 d63c e8f5 e83c
00000040: b501 21bd a4bb 0e3e f576 42bd a479 cdbd
00000050: a7df 94bd 95f0 ed3d 248b fabc ec4a 78bc
00000060: 22cd 98bc 7e84 3abc 1bd5 30bd 2591 a23c
00000070: 20b7 053e d214 013e 522c 95bd 302b 8abd
00000080: d4e3 203d a833 d43d 5815 e83d 9a93 03be
00000090: 369b bcbc ba48 adbd 495c 47bd 03df 58bc
000000a0: 45e3 21be 2b58 a0bd e088 57be 50d5 54bd
000000b0: 7c9c 41bd 711d 96bd e8f7 08be 77c5 31bc
000000c0: 65d9 c43c a6e7 e7bd fb2c d53b 2013 a53d
000000d0: 17ba 333e 671f 9d3d 78f9 4d3e 5b00 45bc
000000e0: e046 81bd b9c9 90bd 3cab 833d a82e 53b9
000000f0: 4314 c33b ac5f 0fbe 9f11 80bd fbc1 4ebd
00000100: ee4f 04bd 1152 993d cc93 20be e1d8 90bd
00000110: 905f 82bd cf72 5abd d2b0 f73c 74ae d4bc
00000120: 2668 a63d 749f 2e3d 96c5 c73c 18e9 1abd
00000130: 59aa 00be 45bc 02bd ba64 843d 58c8 673d
00000140: 28aa 67bd 65da 8bbc 2777 2a3d fe2d dc3c
00000150: c7ad 2d3d c085 49bd f256 6fbd c7aa 103d
00000160: 7152 3f3d 8d58 793d 03df 5ebd a893 a6bc
00000170: c318 ef3d d611 3c3d 28d4 5f3d 4537 ba3c
00000180: 4621 063d cef7 c3bd 37d8 ebbd 2a0d eabc
00000190: 8b17 f3bd e1ad 95bd f8a1 063d ca95 0e3e
000001a0: c5a9 4f3e ce6a 18be 4dbf 81bd a3ad cd3c
000001b0: ca00 403e 1527 db3d 8ce3 0bbe 58ad 74bd
000001c0: 45fb 1dbe 9f5a 533b 826c f73c 3cdf 40be
000001d0: 67a1 2abe de4b 42be 79a3 d3bd c97f 0cbd
000001e0: 8cf1 1bbe 5a62 11be 75da 05bd c42c bcbd
000001f0: f545 82bd 026a 77bd f759 4dbb 82f0 32bd
00000200: 363c e33c 30f7 3e3d c44a 13bd e452 013d
00000210: d3e0 323d ba81 8e3d 12f1 68bb 9752 dfbc
00000220: bbcc c63d 8c97 4ebb ddad b9bd 0183 9c3b
00000230: 045b 86bd 6b20 0abe c2ea 98bd 0d52 45bd
00000240: fdb6 29bd 9ab9 8cbd deea 5abc 8f03 f93d
00000250: 73bb 053d dbf1 ad3c bb31 d83c 4a80 fdb9
00000260: 198e dd3d 5696 8dbd 2455 e5bd 4d8a f43c
00000270: f887 8f3d 7916 e53d 6e7a a03a b869 5dbd
00000280: 8a9c b13b 447c 9e3c 5f8c 2c3d 83c2 a5bd
00000290: 7465 a9bc 5999 11bd 1239 4dbd f33b 93bd
000002a0: 8728 90bd 5d12 5ebd 9377 403b 7704 e5bd
000002b0: 2240 04be a83d a5bd 74c7 acbd 9c8a 8a3d
000002c0: 469c a6bb ca3e 5dbd 65d0 793c 0014 003d
000002d0: 496d 743d a34f de3d ef61 dd3c 4ef4 dd3d
000002e0: bc2a a83d 3ab2 993c e56d 343d 0b20 bdba
000002f0: 8ad4 26bc ff4c fb3c d703 f83d 4db0 133e
00000300: d09f 4ebd 38be 1abe 3502 a5bd 4daa 9c3d
00000310: d206 09bd 4969 19be a3da 75bd 7ac6 173d
00000320: 9837 3e3d 3cfc 813d e618 8b3d 9337 e3bc
00000330: 4c81 a2bd bfda dfbd d7c3 ca3c 178e d93c
00000340: 2715 f03c 3edb 153d b0ff 0fbd f18c 09bb
00000350: 1607 59bc f507 3e3d 7019 963c 85c7 cc3c
00000360: ea91 0d3c 5200 3fbc 9d41 923d 64fe 983c
00000370: bb88 ce3d 14ea adbc a4b0 a43c 3f96 183c
00000380: b05a 933c 1ccf 08bd 6c31 5fbc 0373 8e3c
00000390: 0d7f c5bd 3e5d 2abc 2673 14bd e484 2fbd
000003a0: 1c1e 95bd ab0a a0bd c526 423d 9c22 88bd
000003b0: 96e5 5abd 20c2 99bd 449c e3bc 44d4 ff3a
000003c0: 3b9b 67bc 12e6 74bd f921 d03d 43fd ec3d
000003d0: 6e2b 833c 281e 2abe 3283 f4bd 1326 f03d
000003e0: 1482 2cbd 3a38 26be 031c adbd 2570 af3d
000003f0: 925f 853d dd48 313d 94ca 4bbb 483f d6bc
0.03206401 0.1457013 0.120845266 0.043816626 0.061347913 0.05349602 0.04012941 -0.028962627
0.05614704 -0.057575777 -0.005993041 -0.033297595 0.07644 -0.046427604 0.026207954 0.02843757
-0.03930827 0.13938767 -0.047476728 -0.10032967 -0.07269221 0.11618153 -0.030583926 -0.0151545815
-0.018652502 -0.011384128 -0.043171983 0.0198446 0.13058138 0.12605599 -0.07283844 -0.067465186
0.039279774 0.10361415 0.11332196 -0.12849274 -0.02302323 -0.08461137 -0.048671994 -0.013236764
-0.15809353 -0.07829317 -0.21048307 -0.051961243 -0.047268376 -0.07329834 -0.13375819 -0.010850302
0.024029443 -0.1132348 0.006505606 0.080602884 0.17551456 0.07672005 0.20114696 -0.0120240105
-0.063123465 -0.070697255 0.06429145 -0.00020139909 0.005953343 -0.1400134 -0.06253361 -0.050477963
-0.03230279 0.07486356 -0.1568138 -0.07072616 -0.06365883 -0.053332146 0.030235682 -0.025962092
0.081253335 0.042632535 0.024386209 -0.03781995 -0.12564982 -0.03191783 0.064645246 0.056587547
-0.056558758 -0.017071912 0.04161754 0.0268774 0.042402055 -0.04919982 -0.058432527 0.035319116
0.04670948 0.060875464 -0.0544119 -0.02033408 0.11674645 0.045915447 0.054645687 0.022731433
0.032746576 -0.09568749 -0.11515849 -0.02857073 -0.11869725 -0.073085554 0.03286931 0.13924327
0.20279606 -0.14884493 -0.06335316 0.02510721 0.18750301 0.10700814 -0.13661021 -0.059735626
-0.15427883 0.003225006 0.030203108 -0.18835157 -0.16663133 -0.18974254 -0.10333914 -0.034301553
-0.15228862 -0.14197674 -0.03267904 -0.09188226 -0.063609995 -0.06040383 -0.003133414 -0.043686397
0.027738672 0.046622455 -0.035959974 0.03157319 0.04367144 0.06958337 -0.003554408 -0.027261062
0.09707018 -0.0031523434 -0.09066365 0.004776359 -0.065603286 -0.13488929 -0.074666515 -0.048173953
-0.041434277 -0.06871338 -0.013361661 0.12158882 0.03264947 0.02123349 0.0263909 -0.00048351503
0.108181186 -0.0691344 -0.1119788 0.029851103 0.07008356 0.11185927 0.0012243518 -0.0540559
0.0054202722 0.019346364 0.042126056 -0.08093741 -0.02067826 -0.035546634 -0.050103255 -0.07189169
-0.0703898 -0.05421673 0.0029368147 -0.11182492 -0.1291509 -0.080684006 -0.0843648 0.06764719
-0.005084547 -0.05401496 0.015247439 0.031269073 0.059674535 0.10855033 0.027024237 0.10837613
0.08211276 0.018761743 0.044050116 -0.0014429105 -0.010182509 0.030676363 0.121101074 0.14422722
-0.050445378 -0.15111625 -0.080570616 0.0764967 -0.03345377 -0.1498157 -0.06002296 0.037054516
0.046439737 0.06346938 0.067918584 -0.02773646 -0.07934818 -0.109303944 0.024751587 0.026557012
0.029306961 0.03658604 -0.035155952 -0.0020988549 -0.013246318 0.046394307 0.018322676 0.024997482
0.008640746 -0.011657791 0.07141421 0.01867599 0.10084673 -0.021229781 0.02010376 0.009313165
0.01798758 -0.03340064 -0.013622623 0.017388826 -0.09643374 -0.010398207 -0.036242627 -0.042851344
-0.072811335 -0.07814535 0.047400255 -0.06647226 -0.053441606 -0.075077295 -0.027784474 0.0019518216
-0.014136131 -0.059789725 0.1016273 0.11571743 0.01601192 -0.16613066 -0.11939086 0.11726012
-0.04211624 -0.16232386 -0.084526084 0.08566312 0.06512369 0.04328238 -0.0031096088 -0.026153222

stn.localization_convs.3.bias f4 [10]
00000000: 0a1e 1dba 1d66 843d cd61 b03d 836f 9d3c
00000010: c748 853d f159 0abe ee0e 00be 7aef e83d
00000020: b502 bb3d d446 bdbc
-0.0005993551 0.06464789 0.08612404 0.019218212 0.06508022 -0.13510872 -0.12505695 0.113738015
0.09131376 -0.023105063

stn.localization_linear.0.weight f4 [32, 90]
00000000: 6970 d03d fb16 d23d d17e 473e 15c0 573d
00000010: 9122 5f3d 9477 483d a77e 61bd 307a 11be
00000020: 378b 49be 5b93 703d 2c48 fa3d baeb c53c
00000030: 01ff 25be eeb8 333d ac30 14be f0d4 22be
00000040: 5998 f93c 750c 453c 9197 af3c 80bf 253e
00000050: 6f9e 3bbd 2c56 9c3c 0371 ec3d a008 633d
00000060: 7f7e 513d 49c3 70bd 180e aebd e9d8 27bd
00000070: 6ec8 fabd 645f d5bc 5df4 05be 5173 8bbd
00000080: 98e6 98bd fed4 2fbe 0e7e 29bd 7a2b 893e
00000090: b67a 2fba 2b38 86bd f1c2 53bc 5bbe 60bd
000000a0: e40b 6e3d 8cbd f23d bc9c 90bd 7546 c5bc
000000b0: a70c cdbc e62d e13d ea52 693d 55b6 65bd
000000c0: 871e a4bd 174e 1abe 15c5 24be 7a9f 37bd
000000d0: 59b4 0bbd 148a 353d 03d1 c33d a1d0 7ebc
000000e0: 716f d9bd 702a 0ebd 0449 93bd 6294 a83b
000000f0: 2ac6 fbbd ac9e 4cbe cb93 46bd 793e b1bd
00000100: f6c9 b8bd 169f 1bbe 4a65 3ebe 807d 13be
00000110: fac6 ab3c 66ae 80be d0de 2bbe c3a3 4cbc
00000120: 22a0 f33c 2988 543d c5d8 0dbe 8ed3 093d
00000130: 30c1 47bc 1060 b03c 9271 f3bc b0ec bbbb
00000140: 4fc0 63bd 9d73 be3c 300d a6bd 70a8 3cbd
00000150: c26c a33b 7615 a83b 28e7 653d 4784 c13c
00000160: 4bc5 58bd 884e 623d ddd9 1cbc 80fb 0dbd
00000170: 7d06 833d 0470 ebbd d76a 85bc 1df4 673d
00000180: 7052 25be 6a85 10bc c0f9 bfbd 88a8 54bd
00000190: 78cc 083e 9e5f 0a3e 5fa1 13be bd9c ac3d
000001a0: de36 c9bd 5c8f d9bd 69e0 2f3d 2aee 0b3d
000001b0: 55c8 ce3d f12b 8c3e cc0b 9ebd b0d2 273d
000001c0: d455 b9bc 3d1a 41bc 43d7 853d 6c48 a2bc
000001d0: 508a 9abd a050 3bbe 9018 95be 7b09 27be
000001e0: 0f90 f13c 75c4 5cbe 4246 91bb e2cb 81bc
000001f0: a991 1f3d b898 ac3d b3a1 96bd 71b5 373b
00000200: 65fb 70bd e38f 59bd 8f9f e63c c100 b03d
00000210: ea2e e43c d9d4 8cbd c19c 533e 8caa 9bbd
00000220: 3f9c 0cbd 8cb6 9fbc 4f17 c93c 94d0 d6bd
00000230: f78b 393d d7dd 8cbd 12a5 4dbd 8996 7b3d
00000240: d5d2 68bc 9e4a e13d 2e72 16bd 82e9 00be
00000250: 9bff c3bc 1196 ac3d 2f83 953b 0d38 64be
00000260: 8b30 3bbd 05c0 ecbd 09d5 3bbe e090 08be
00000270: 253d dfbd bc25 93bd 2ffc ce3c 84e1 06be
00000280: f89d dbbd cf8d 6abc 2bb4 94bd 7b6f 4fbd
00000290: 99b1 83bc 1231 c5bd 68b3 43be 21a7 733d
000002a0: f624 cbbd 9ac3 96bc 69a1 1d3e 5dbd 42bb
000002b0: 2ef6 053c 459c 9cbd eb3c f43d 64d7 e9bd
000002c0: d824 c2bc 294c b0bb 4805 b7b9 d67b b63c
000002d0: 0283 bfbd 38b7 1abd 2332 a83b f8f0 83bd
000002e0: 4e2d 65bd ac92 62bd 9ab2 493c cc17 cdbd
000002f0: 6768 f8bd 9be0 03bd 0b63 71bc 01db ecbd
00000300: 9001 963d 1864 b33c 04dc 1e3d 6a03 aabd
00000310: 4764 9f3d 5b48 243e 6f22 1dbd 69de 73bd
00000320: 709b 8d3d 5417 bd3d 4a30 59bc 6e5a 983d
00000330: 272e 0dbc b1b9 9f3c b705 713d 87a1 a9bd
00000340: 0285 173d 074d 9dbd 0b84 34bc b0e3 943b
00000350: f7ba 2b3d ee31 c5ba 5114 c7bd 2d74 09bd
00000360: 08ff 1b3c beea 84bd c41e 0e3e 7abd 91bd
00000370: 01b9 d73d 5fb0 f5ba 0a4d c93c 94a7 9b3b
00000380: 2e90 21be f9b2 c4bd 5264 13bc 1860 ecbc
00000390: 5fa6 b63d 19ac 833d b4e2 dc3b 098c 03bc
000003a0: 1581 06bd b776 89bc b3bf 433d f817 d0bd
000003b0: 1593 593d 8c7f 9c3c 1260 e4bc 0c69 61bd
000003c0: 746b 003d e90c 3d3d 7a16 493d 2714 6cbe
000003d0: a012 03be a64c 03be 106f 6ebd c66d 2abd
000003e0: 8c25 52bc 2dde 0d3e 6720 383e 9323 2d3d
000003f0: 4233 7c3d 50e3 c53d ce6e 223d 426d c03c
0.101776905 0.102582894 0.1948197 0.052673418 0.054476324 0.048942164 -0.055052426 -0.14206767
-0.19682012 0.05873428 0.12220797 0.024160255 -0.16210558 0.043877535 -0.14471692 -0.15901542
0.030468153 0.012026896 0.021434577 0.16186333 -0.04580539 0.019084059 0.11544993 0.055428147
0.051146027 -0.05877999 -0.08498782 -0.040978346 -0.1224526 -0.026046462 -0.13081498 -0.06809104
-0.07465857 -0.17171094 -0.04137998 0.26790982 -0.00066940056 -0.06553682 -0.012924896 -0.054869037
0.05811681 0.118525594 -0.07061145 -0.024081448 -0.025030447 0.109950826 0.05696384 -0.05608209
-0.08013635 -0.15068851 -0.16090806 -0.044829823 -0.03410754 0.044321135 0.0956135 -0.015552671
-0.10616959 -0.03470844 -0.07191661 0.0051446417 -0.12293656 -0.19982404 -0.04848079 -0.08654494
-0.09022896 -0.15197405 -0.18593326 -0.14403343 0.020968903 -0.25133055 -0.16784215 -0.012490216
0.029739443 0.051887665 -0.13852222 0.03364902 -0.012192056 0.021530181 -0.02971724 -0.0057350025
-0.05560332 0.023248488 -0.08107984 -0.046059072 0.00498733 0.0051295115 0.05612865 0.023622645
-0.05292253 0.055250674 -0.009573427 -0.034663677 0.06397722 -0.11495975 -0.016286297 0.05662929
-0.16144729 -0.008820871 -0.09373808 -0.051918536 0.13359249 0.13513038 -0.14417027 0.08428333
-0.09824918 -0.10623047 0.042938624 0.034162678 0.10096804 0.27377275 -0.07717094 0.04097241
-0.022623934 -0.011786041 0.065351985 -0.019809924 -0.07545912 -0.18292475 -0.29120302 -0.1631221
0.029487638 -0.21559317 -0.004433424 -0.01584429 0.03895727 0.08427566 -0.073550604 0.0028031731
-0.0588335 -0.053115737 0.028152255 0.08593894 0.027854402 -0.06876535 0.20665266 -0.076008886
-0.034328695 -0.019496225 0.024547247 -0.10489002 0.045299497 -0.0687825 -0.05020625 0.06142286
-0.0142104225 0.1100056 -0.036729984 -0.12589076 -0.023925593 0.084270604 0.0045627574 -0.22287007
-0.04570059 -0.11560062 -0.18342985 -0.13336515 -0.10900334 -0.07184932 0.025266735 -0.13171965
-0.107234895 -0.014316036 -0.07260927 -0.050643425 -0.016075896 -0.096285 -0.19111407 0.05948556
-0.09919159 -0.018403817 0.15393604 -0.002971492 0.00817637 -0.076469935 0.11925682 -0.114180356
-0.02369921 -0.0053801727 -0.00034908415 0.022275846 -0.0935116 -0.037772387 0.00513293 -0.064424455
-0.05595141 -0.05531566 0.012310648 -0.100143045 -0.12129288 -0.032196622 -0.014733086 -0.11565209
0.07324517 0.021898314 0.038784042 -0.083014324 0.07782798 0.16043226 -0.038362917 -0.05953828
0.06914413 0.09232965 -0.013256142 0.07439123 -0.008616961 0.019497724 0.05884334 -0.08282762
0.03699208 -0.076807074 -0.01101781 0.004543744 0.04192635 -0.0015044787 -0.09720672 -0.03355806
0.009521253 -0.06490086 0.13878924 -0.07116218 0.105333336 -0.0018744579 0.024572868 0.0047502015
-0.15777656 -0.09604449 -0.008996086 -0.028854415 0.089184515 0.064293094 0.0067408923 -0.008028992
-0.032837946 -0.01678024 0.04779024 -0.10160822 0.053118784 0.019103788 -0.027877841 -0.05503182
0.031352475 0.04615489 0.0490937 -0.23054563 -0.12800074 -0.12822208 -0.058211386 -0.041608594
-0.012826335 0.13854285 0.1798111 0.042270254 0.06157232 0.09662497 0.039656453 0.023489598

stn.localization_linear.0.bias f4 [32]
00000000: 54ff ed3c c095 633d f559 7d3d 99e4 d5bd
00000010: fa8e 99bd 4b94 343e aaf3 63bd 02ed 1dbd
00000020: 3d13 c1bd 1ba1 513e 788d 303e 4c3f e4bd
00000030: 3ab6 393e 374f 8d3c cc3c 343e 782e 0bbe
00000040: 7b65 523e 44ef 4a3b f12c 053d 4107 e6bd
00000050: a985 1bbd d71d 233d ed88 3e3d 0a01 043e
00000060: 71a1 01be 3d32 7d3d f1a0 103e 1d6e b73d
00000070: 29d4 ee3d f3f2 163e 82a4 0c3e 1e4b 4b3e
0.029052414 0.055562735 0.061853368 -0.10443992 -0.07497974 0.17634694 -0.055652298 -0.038556106
-0.094274975 0.20471613 0.17241466 -0.111448854 0.1813592 0.017249687 0.17601317 -0.13591945
0.20546524 0.0030965367 0.032513563 -0.11231852 -0.037969265 0.03982338 0.0465173 0.12891021
-0.12659241 0.06181549 0.14123894 0.08956549 0.1166156 0.14741115 0.1373463 0.19852874

stn.localization_linear.2.weight f4 [6, 32]
00000000: a952 a3be 0456 8cbe 055c 82bd 8508 d83b
00000010: e1f2 e33c 01ef 63be 94d0 10be 80d9 053e
00000020: c4f7 af3d 9f26 26bc 99f9 9dbe 535f d43d
00000030: e3ba 99be 2c2d af3d 1693 c7bd f484 82bd
00000040: 8e6a 98be 9d67 08bd f7da 12be 7d87 9abd
00000050: 9401 b93d 1608 1bbe 5070 053e 596a 083e
00000060: 22d8 ac3d 8eff 0f3e 4b21 f1be d082 64be
00000070: 3b57 82be a0db cfbc e9de b5be 3732 45bd
00000080: 6bba 533e 6d02 853e 272c 8b3d a8b0 c23d
00000090: dbdc 05bf b12c 0fbf 75b7 03be 5bb9 1f3e
000000a0: f9c1 ca3d ec8d 6ebe d8e8 a9be 0aec 53bc
000000b0: f5b4 aebc ea12 103d 3360 04be b397 793c
000000c0: 9310 f63c 114c 36be 9d5d 7ebd a8b7 153e
000000d0: ea77 113e 72a0 d1bd a054 123e b571 0b3d
000000e0: cb41 493e bf53 8bbc de3d 24bd 1798 283b
000000f0: 4251 c2bd c7c4 0a3f d44f 84bd e34a 6bbe
00000100: b7e5 9b3e 0ccc 713e 9469 493d 984e 4fbd
00000110: 28be 34be 881e 563e ee8b 063e 8a2a 7dbd
00000120: 0096 b73d e300 a7bc 9723 063e f945 5abd
00000130: 18a0 663a f844 ec3d 1197 183e 0d75 053e
00000140: 785e 61bd cb1d ec3c 7123 99bd b668 a73c
00000150: 709a 493d f811 da3d 326b 1a3d 41b3 4f3b
00000160: 09f6 0c3e f1f1 cebd 64e4 2e3d 5631 6b3d
00000170: 8d8c 713d 54d7 c2bc 8262 8e3c a6e9 953b
00000180: 88c0 f73d 392d 383e 1a30 69be eff8 58be
00000190: 2fab 00be a426 a8bc 2a28 f7bc 8c3d a0bc
000001a0: 1c9b a6bb 0d5d 2b3e abbc d8bd dd47 76bd
000001b0: 086f 9e3e 15c3 25be 3f0c 053c 8f3c 653b
000001c0: ea58 c93d 1cd3 033e 254f 513e 3a0d 8ebc
000001d0: 2126 933d c142 d53c faa3 18bc 9377 093e
000001e0: 8fad bf3d b1d4 e03d 442d 3fbd 119d 473c
000001f0: edb6 023e 2a31 3b3d 0a24 74be bb77 243e
00000200: cb90 a0bd 3daa e83d 18be 5a3e ed20 9abd
00000210: 50e6 703d 00b1 05be 4b55 173e 2df9 dfbd
00000220: 0cf1 483c b220 a4bd 87e6 7b3e d50b ad3d
00000230: c608 433e 86f7 7cbd 8e50 473d e61b 1cbe
00000240: 94a2 da3d 47fe 063d 4afa 103d 96c3 aa3d
00000250: 6cb9 d9bd 1823 d63d c898 4bbe ca61 3f3e
00000260: 6ebe b5bd 88bc 593c 0dd2 96bc c1b9 253e
00000270: 5948 ce3b 39a7 0a3d 520b b0bd f174 20bd
00000280: ccff 09be 6dcd cb3c 71bf 383d 854e 14bd
00000290: 7562 1d3c 0729 883c 503d 33be 993f 833d
000002a0: 5f2b 823d e300 d33d 9e72 10bb 646d 2abe
000002b0: a4fb 953b 1c36 d73c dae0 27be 36a3 be3d
000002c0: f03a 5cbb d889 383d c24d 8ebd 2294 923d
000002d0: fc75 063e cec6 963d de6d babd 899a 0a3e
000002e0: b17e 4abe 2bcf 0fbe 5569 323e e236 8ebd
000002f0: ded2 39bc 3b20 45bd c2aa d8ba 9122 cbbd
-0.31899002 -0.27409375 -0.063652076 0.0065928125 0.027825775 -0.22259142 -0.14142066 0.13071251
0.085921794 -0.010141044 -0.3085449 0.10369744 -0.30025396 0.08553538 -0.09744851 -0.06373015
-0.29768795 -0.03330194 -0.14341341 -0.075453736 0.09033504 -0.15139803 0.13031125 0.13321818
0.084396616 0.1406233 -0.47095713 -0.22315526 -0.25457177 -0.02537328 -0.3552163 -0.04814359
0.20676582 0.25978413 0.06795531 0.09506351 -0.52290124 -0.5592757 -0.12862952 0.15598051
0.099002786 -0.23296326 -0.33185458 -0.012934694 -0.021326521 0.035174288 -0.12927322 0.015233922
0.0300372 -0.17802455 -0.062100995 0.1462084 0.142059 -0.10235681 0.14290094 0.034043986
0.19654004 -0.017007707 -0.040098064 0.0025725418 -0.09488155 0.5420651 -0.064605385 -0.22977786
0.30448696 0.23612994 0.049172953 -0.050612062 -0.17650664 0.20910084 0.13139316 -0.061808147
0.08964157 -0.020386165 0.13099514 -0.053289387 0.00087976595 0.11536592 0.14901377 0.13032933
-0.055021733 0.0288228 -0.07477463 0.020435672 0.04921955 0.106479585 0.037699886 0.0031692537
0.1376573 -0.101047404 0.04269828 0.057420097 0.05897193 -0.023784317 0.017380957 0.004574972
0.12097269 0.17986001 -0.22772256 -0.2118871 -0.12565301 -0.020526238 -0.030170519 -0.019560598
-0.0050844084 0.16734715 -0.105828606 -0.060127128 0.30944085 -0.16187699 0.0081205955 0.0034978723
0.09831412 0.128735 0.20440347 -0.017340291 0.07185007 0.026032807 -0.009316439 0.1342452
0.093592755 0.10978068 -0.046674028 0.012183444 0.12765093 0.045701183 -0.23841873 0.16061299
-0.07840117 0.113605954 0.21361578 -0.07525811 0.058813393 -0.13055801 0.1477863 -0.109361984
0.012264501 -0.08014049 0.24599658 0.084495224 0.19046316 -0.061759494 0.048660807 -0.15245017
0.106755406 0.03295734 0.035394944 0.08338086 -0.106310695 0.10455912 -0.198825 0.18689647
-0.08874212 0.013289578 -0.018410707 0.1618414 0.0062952456 0.033850882 -0.08595909 -0.039174024
-0.13476485 0.024878228 0.045104448 -0.036207695 0.0096059935 0.016621126 -0.17503858 0.06408615
0.06355929 0.103029035 -0.0022040973 -0.16643292 0.004577117 0.026270919 -0.16394368 0.09308474
-0.0033604465 0.045053333 -0.06948425 0.0715716 0.13130945 0.07362138 -0.09102987 0.13535513
-0.19774891 -0.14043872 0.17422993 -0.06944062 -0.011341779 -0.04812644 -0.0016530382 -0.099187024

stn.localization_linear.2.bias f4 [6]
00000000: 5783 33bf 0825 c5be bfe7 293e f10a 6e3e
00000010: 470b 46bd 64cc bfbd
-0.70122284 -0.38504815 0.1659231 0.23246361 -0.0483506 -0.09365156

conv1.weight f4 [10, 1, 5, 5]
00000000: 4d99 b63e b198 563e 2c70 95be 2d62 7dbe
00000010: 2505 71be b28d a53e 7fd7 f0bd 4ddc 1b3c
00000020: 18b0 4dbe fe78 c4bb 3296 583e 4b8c 01be
00000030: 2139 6abc 8d2a 25bc 7a8a a9bc fc93 68bd
00000040: 2b80 21be d0a6 a7bc a49c 7cbe f5fe adbd
00000050: eab3 173c 38da 063e 58eb 293e 4b74 1ebe
00000060: cffb bfbd 4388 0f3d 5d6b d33c a6eb 24bd
00000070: bb99 30be 5804 dcbd 70ce 223d feb9 46bd
00000080: 1e45 743d 8bb9 69be 7af5 7bbe 5656 103e
00000090: 2aa1 84bc 48dd 113e 2ebe 63be 4014 57be
000000a0: bf65 963e cfdc e33d eeaa 1f3e 291e d83d
000000b0: cd8d 023e 3aef 7f3e 8fa8 373e 7f87 05be
000000c0: 4cf7 bfbd 6703 93bd 587d 5fbc cecc 383e
000000d0: 8ecb 8b3d 1fd1 7dbe faa1 44bc e2fb 663d
000000e0: ec90 343e 3e79 c8bd 0103 cc3d 1f1f 4abe
000000f0: 2eea 7e3e 8189 7b3e d3b4 47be ac9b 43be
00000100: 6795 c73d 8dff cabd 04c5 903c 69b2 ffbd
00000110: 09f6 b43d 32f3 163e 53c2 443e 26dc 463e
00000120: 53e7 033e e2a4 42be cf6a 07bc 1a57 213e
00000130: 1349 b43d 55f1 1bbe c25c 083d d706 35bd
00000140: 0dbf 19be e8d0 4ebe d222 15be e11a 5bbe
00000150: fd51 28be cab2 d3b9 77b4 04be c9a9 cebd
00000160: 2cf6 15be 740a e1bb cc5a 33be 4e71 183e
00000170: c73f f13d e767 a73d 20ad 903d 9e0b 4ebd
00000180: ce08 22be f9a0 bc3d 851c 8abe 8968 85be
00000190: 17c7 bc3d 37e9 19be fefc 7c3d b4ef 3cbe
000001a0: 329b 4cbe 079b 60be b011 8fbd 9446 86bd
000001b0: d6cf 12be 15e3 26bd 7943 6f3d f5f9 0cbe
000001c0: 6764 163d df3b 1fbe 518d 08bd a917 d5bd
000001d0: bd21 23be 7be4 b43d 000c 5bbe 7ef9 19bd
000001e0: 155c 66be 23f2 573c 29c3 043d 496a 83be
000001f0: 26e4 65be ac23 49be 8e79 113d 09e4 30be
00000200: 8f0d 243e 77ce 5c3e 9679 46bd a7be 223e
00000210: c66f be3c e902 443e 11f0 c0bd d61d 133e
00000220: 15df ca3e fed1 8e3d 845f 07bd 8ff9 89be
00000230: 90e2 1e3e 2eba ba3e 9db4 953d a2e8 c03d
00000240: f3ad 8bbc 1187 5c3c a19f 4f3e 44e6 3a3e
00000250: 45a1 97bd 322e 9abe 0e4b 8aba 9e3c 78be
00000260: 1713 77bd 6bf7 15be 69ca 803e 0146 3bbe
00000270: 4455 44be d610 743d 8e0c dcbc 356c c83e
00000280: 1bd0 5cbd c752 143c 107e c5bd b136 883e
00000290: 3275 913e aa82 e43c ec13 13bd 40de ba3e
000002a0: 8de7 a03e 9981 c2bc 4569 58be 3d05 773e
000002b0: 2e0b 8e3e e7a8 c9bd 2c16 eabc 4f72 fc3d
000002c0: 7ace 463e 12e5 ffbc f8a9 0e3e 7b7d e3bd
000002d0: 6445 463d cb47 1bba 12aa b33d eacb 343e
000002e0: fe68 c9bb 5fc2 263e 3ae8 84bd 0e53 73bd
000002f0: 874d 743e 477e cdbb e9f7 b1bd a1b3 7b3d
00000300: 0c60 fd3d 9380 893c 52b5 efbd c9a7 0cbe
00000310: a1dd 0ebc 4164 983d 0754 1fbe 944e 1d3e
00000320: e18a babc bc91 33bd a486 e83b 22d0 473d
00000330: a5e5 b03d 1352 c2bc 5d01 15bd cef8 bcbd
00000340: 6ecf 3d3e 854a 583e a755 0a3e 7934 05be
00000350: 29e6 803e ff9b ae3d f279 7dbe d1f7 703e
00000360: 0b08 7a3e 66a2 3d3e ccf2 8abe 7d0a 22be
00000370: 0056 b33c 42ba fcbd ac98 c3bd 60cf 1abe
00000380: fd48 02bd 512b 54be 1999 60bd 043b 493e
00000390: dd4b 3e3e 2a65 093c 8aff 64be e84b 74be
000003a0: 877c 0c3e ae4a f53d d7a0 343d e665 a5be
000003b0: 91e1 7dbe b82a 87be b371 8f3e d1e6 353e
000003c0: a09e 5ebe 6df8 d3bd aa08 443d 5291 8a3e
000003d0: 561e 823e 3271 7ebe 67b5 8dbd 78eb 733e
000003e0: 5312 953c 5892 763c
0.35663834 0.20956685 -0.29187143 -0.24744482 -0.23537119 0.32334667 -0.117598526 0.009512973
-0.20086706 -0.0059958687 0.21151045 -0.12651174 -0.014295847 -0.010080946 -0.020695914 -0.056781754
-0.15771548 -0.020465285 -0.24669129 -0.08495895 0.009259203 0.13169181 0.16593683 -0.1547405
-0.093742006 0.03504206 0.02580803 -0.040263794 -0.17246144 -0.10743016 0.039747655 -0.04851722
0.059636228 -0.22824685 -0.2460536 0.14095435 -0.01619013 0.14244568 -0.22240517 -0.21003819
0.293745 0.111261 0.15592548 0.105526276 0.12749405 0.24993601 0.17935394 -0.13039969
-0.0937334 -0.07178383 -0.013640724 0.18046877 0.06825934 -0.24786805 -0.012001509 0.056392558
0.17633408 -0.0978875 0.099615104 -0.19738434 0.2489402 0.24564172 -0.19502573 -0.19102353
0.09745293 -0.09912024 0.01767207 -0.12485201 0.0883599 0.14741209 0.19214754 0.19419917
0.12881212 -0.1900821 -0.008265211 0.15755883 0.08803 -0.1522878 0.033291586 -0.044195976
-0.15014286 -0.20196879 -0.14564064 -0.21396972 -0.16437526 -0.00040378264 -0.12959467 -0.10090978
-0.14644688 -0.006867701 -0.17515105 0.14886972 0.11779743 0.08174115 0.07064271 -0.050304048
-0.15823671 0.092103906 -0.26974884 -0.26056316 0.09217661 -0.1503037 0.06176471 -0.18450814
-0.19981077 -0.21934138 -0.069857955 -0.065564305 -0.14337096 -0.040743906 0.058413956 -0.13767226
0.036716845 -0.15550183 -0.033337895 -0.104049034 -0.15930839 0.08832642 -0.21391296 -0.03759145
-0.22496064 0.0131802885 0.03241268 -0.25667027 -0.22450313 -0.19642514 0.035516314 -0.17274489
0.16020797 0.21563135 -0.048455797 0.1589304 0.023246657 0.19141735 -0.09420789 0.1436685
0.39623323 0.069736466 -0.033050075 -0.2694821 0.15516114 0.3647017 0.0730984 0.09419371
-0.017050719 0.013459937 0.20275737 0.18251902 -0.074038066 -0.3011337 -0.0010550932 -0.24241874
-0.06032094 -0.14645164 0.25154427 -0.18288423 -0.19173151 0.05958637 -0.026861455 0.39145055
-0.053909402 0.009052939 -0.09643185 0.26604226 0.28409725 0.027894337 -0.03590767 0.36497688
0.3142666 -0.023743438 -0.21133907 0.24123092 0.27742904 -0.09846669 -0.028575025 0.1232649
0.19414702 -0.031237159 0.13932025 -0.11107918 0.04840602 -0.0005923479 0.08772673 0.17655912
-0.0061465492 0.16285084 -0.06489606 -0.05940538 0.238577 -0.006271157 -0.08689863 0.061450604
0.12371835 0.016784942 -0.11704506 -0.1373588 -0.008719833 0.07440997 -0.15559398 0.15362006
-0.0227713 -0.043840155 0.0070961285 0.048782475 0.08637551 -0.023720777 -0.036378253 -0.09227143
0.1853616 0.21122177 0.13509236 -0.13008298 0.25175598 0.08525848 -0.2475355 0.23532034
0.2441713 0.18518981 -0.27138364 -0.15824313 0.021891594 -0.12340213 -0.09550604 -0.1511817
-0.03180789 -0.20719649 -0.054833505 0.19651419 0.18583627 0.008385936 -0.22363105 -0.23857081
0.13719378 0.11977135 0.0440987 -0.32304305 -0.24793078 -0.2639978 0.28016433 0.1776383
-0.21740198 -0.10350118 0.047859825 0.27063996 0.2541377 -0.24847868 -0.069193654 0.23820293
0.018197214 0.0150495395

conv1.bias f4 [10]
00000000: 2410 1f3e 281b 8a3c a6fa 0fbc ce62 9a3e
00000010: 40fe 973e ccbe a6bd 6864 d63d 6ef0 20bb
00000020: 2f0c a03b 4fda 273d
0.15533501 0.016858652 -0.008787787 0.30153507 0.29686165 -0.0814186 0.1046837 -0.002455737
0.004884265 0.04097968

conv2.weight f4 [20, 10, 5, 5]
00000000: 41e4 873d e7b7 6abc 16ec 5c3d 8b25 ec3c
00000010: 7b4c 56bd bfda 273a 0471 b93d faed 593d
00000020: 0f45 5b3c 3044 083d 0505 4b3d 056b 0d3e
00000030: 8373 cd3d fc38 66bd c9e0 d4bc 9b58 24bd
00000040: f482 1e3d 7f2c f43c c264 bcbb 86a1 473c
00000050: d805 603d 9ac5 a63d 1bfa 0c3d 72fb 143c
00000060: 5356 933c b1fe 50bc 7bc7 ca3d 1c3b 003b
00000070: ce65 4ebc c9b8 883d 5e06 a93d a734 6d3d
00000080: 9fbe 933d 997e e03c 094c a4bc a1ea 593c
00000090: 27c6 a53d 658f 893d 0969 68bd 4661 e0b8
000000a0: 25bd b43d 4e53 cf3d 49fa 94bb d8ac 583d
000000b0: e092 e43c b09a 803c 48c3 683d 6638 873d
000000c0: 0208 46bc a34a b6bc ec6d 513d 6727 093d
000000d0: 39a5 d43c 453d b0bd b770 5abd 56c5 023d
000000e0: 6b02 453d fdb2 8c3b d9c2 92bd a986 103d
000000f0: bc4d 4f3c a882 e0bb 72da e33c 6775 ddbc
00000100: 8f88 c5bc feae 8b3d 86db 943d 0e4f ee3c
00000110: c53c 54bd 9636 093d 0611 8bbc 6904 223c
00000120: 2a0e 223d 5a6e 8cbc 5cc5 013d 76ba 653c
00000130: ed85 9fbc a9ec 9a3c 49cc d4bc 11bb 3abd
00000140: 8a7b 7f3c 1393 17bd 9c2e 5ebd 7010 31bd
00000150: 2e42 24bc a04a 23bd f529 30bd d074 303c
00000160: fe90 a4bd db5c 51bd 3594 c0bd 2081 c1bc
00000170: 0574 35bb a918 77bc e44c 60bc 8861 70bc
00000180: 26a7 69bc 7a54 26bc b8b2 38bd 1574 413d
00000190: 0c6a 35bd dab3 74bb d195 053d 7f63 8fbc
000001a0: f0d7 84bd 9e87 38bd b07f bfbd 47ea 77bd
000001b0: 5d86 58bc 235f b43c a0ce 39bd bf7a 19bd
000001c0: fbc8 20bc 4501 5bbd fd7c 70bd f6e0 afbd
000001d0: bc6f 0ebd 0a67 c8ba c6c0 a83c 4d46 aabd
000001e0: fb0e a9bb 3bd3 a1bd 5655 dd3b 47f5 84bd
000001f0: 9924 47bd aa85 24bd 509f b63d 74ed c3bd
00000200: 70fe 3ebc ce50 663d 5dcc c3bc bad9 a33d
00000210: 9308 e6bb 6814 edbd 4a75 f0bc bca3 583d
00000220: 5648 b1bc 527d eabb d2b9 69bd 5299 5ebc
00000230: f2a6 eabc 7695 713c 2f7a 0bbd f155 fabc
00000240: 5f5c 62bc 237e ce3c 7beb b7bb 6090 f03b
00000250: d71a 6f3d ec29 6a3c 66ef 813d 165c 1dbd
00000260: 408c cbbd 1f9e 95bd baa6 59bc cbe6 183d
00000270: 21b2 acbc 7dee 25bd 19b7 d03c 01c9 8d3c
00000280: 1955 703d 81f6 88bd 7020 1bbd f424 c1bc
00000290: dc7b 93bd 3b28 ff3c c403 97bd 91ff 203d
000002a0: 3600 2a3d 3993 23bd be64 f2bc 77b8 51bc
000002b0: 14c3 053d f66e 8f3c cba7 88b9 5d2d 3b3d
000002c0: e7f4 363d b316 9fbc 81cf 2dbd 1983 d6bc
000002d0: 3333 6c3b 1458 993c 41f7 76bc a51d fe3c
000002e0: d756 6f3d 0d38 d2bc 7703 e83c 8d8f 23bd
000002f0: da14 803c 9205 6cbd 5c00 25bc 7434 253d
00000300: ad3a b1bc 25c9 24bd bc98 263d e75e 03bd
00000310: 3c18 e9bc 8121 c83b e4f8 063d b767 6cbd
00000320: 2000 e83c e716 29bd 553f 4e3d 202c a4bd
00000330: 30ec babb 503b 42bd 2500 14bd d689 3c3d
00000340: 4c11 3bbc 2cb5 68bd 8136 84bd 72ed 0cbc
00000350: 35db a03c 288a ac3c 2d79 b33a b461 50ba
00000360: a334 63bd 96e3 ed3c 0aaa 41bb d401 6ebd
00000370: 16ea 1ebd df00 eebc d437 1dbd 899c 56bb
00000380: 45a3 413d 0ac6 993d fba2 7ebc 90e5 453d
00000390: 47db 9c3d d630 c83b 24f3 d33d 5600 e03b
000003a0: f894 e0bc b546 093d 7c9b b53c 5f65 2e3e
000003b0: 394f 0e3d 52e9 f0ba e7b9 833b 4994 163d
000003c0: d02b 033e f447 4c3d 3db6 c43c 1b35 6ebc
000003d0: 1931 2ebd c335 8d3d f39b 843b 999c bc3c
000003e0: fa76 a3bd a68c bbbc 4aeb 1d3d 01ac 2cbd
000003f0: bd1c a0bd a160 433d 0c42 82bd 6e65 38bc
0.06635333 -0.014326072 0.053936087 0.028826496 -0.05231903 0.000640314 0.09054759 0.053205468
0.013383164 0.033268154 0.049565334 0.13810356 0.10031798 -0.05620669 -0.025986092 -0.040123563
0.038699105 0.029806374 -0.005749316 0.012184506 0.054693073 0.08143158 0.034418207 0.009093152
0.017985499 -0.012756036 0.09901329 0.0019566482 -0.012597514 0.0667587 0.082531676 0.05791154
0.072140925 0.027404116 -0.020055788 0.013300569 0.08094435 0.067168035 -0.056740794 -0.00010699271
0.08825139 0.10123311 -0.004546438 0.05289921 0.027902067 0.01569876 0.05682686 0.06602554
-0.01208687 -0.022252386 0.05113022 0.033484843 0.02595769 -0.08605436 -0.05333015 0.031926475
0.04809801 0.004293798 -0.071660705 0.035284672 0.012652811 -0.006851513 0.027814124 -0.02703352
-0.024112968 0.068204865 0.07268433 0.02909043 -0.051815767 0.033499323 -0.01697589 0.009888747
0.03956429 -0.017142463 0.031682357 0.0140215065 -0.01947304 0.018911676 -0.025976317 -0.045588557
0.015593419 -0.037005495 -0.05424367 -0.043228567 -0.010025544 -0.03986609 -0.043008763 0.010770038
-0.080354676 -0.051113945 -0.09403268 -0.023621142 -0.0027687561 -0.015081563 -0.013690207 -0.014671691
-0.014261043 -0.010151977 -0.045092314 0.047229845 -0.044290587 -0.0037338645 0.03261358 -0.017503498
-0.06486499 -0.04505121 -0.09350526 -0.06052616 -0.013215628 0.022018021 -0.04536307 -0.037470575
-0.0098135425 -0.053468008 -0.058712948 -0.0858783 -0.034774527 -0.0015289497 0.020599734 -0.0831419
-0.0051592565 -0.07901617 0.0067545576 -0.064920954 -0.048618887 -0.040166534 0.08917105 -0.09566775
-0.011657342 0.056229405 -0.023901159 0.080005124 -0.007020065 -0.11576158 -0.029352803 0.052890524
-0.021640938 -0.0071560526 -0.057061978 -0.013586359 -0.028644059 0.014745107 -0.03405207 -0.030558558
-0.013815968 0.025206631 -0.0056127883 0.0073414296 0.058375206 0.0142922215 0.0634449 -0.038417898
-0.0993886 -0.0730555 -0.01328438 0.037329476 -0.021081032 -0.040510643 0.025477933 0.01730776
0.058674905 -0.06687642 -0.03787273 -0.023577191 -0.07201359 0.031147113 -0.07373765 0.039306227
0.041504107 -0.039935324 -0.029589053 -0.0128003275 0.032656744 0.017508965 -0.00026064957 0.04569756
0.04466715 -0.019420004 -0.04243422 -0.02618556 0.003604126 0.018718757 -0.015073598 0.031019995
0.058432426 -0.025661493 0.028321965 -0.039931823 0.015634943 -0.0576225 -0.010070886 0.040333226
-0.021634424 -0.04023089 0.040673003 -0.032072928 -0.028453939 0.0061075096 0.032952204 -0.057716098
0.028320372 -0.041281607 0.050353367 -0.08016229 -0.0057044253 -0.047419846 -0.03613295 0.046029888
-0.011417698 -0.056813404 -0.06455708 -0.008601533 0.019635776 0.021061972 0.0013692729 -0.0007949129
-0.05547012 0.029039185 -0.0029550814 -0.058107212 -0.03879746 -0.02905315 -0.03838332 -0.003274711
0.047274847 0.07508476 -0.015541787 0.04831463 0.07659011 0.0061093373 0.1034911 0.0068359775
-0.027414784 0.033514697 0.022168867 0.17030858 0.03474352 -0.0018380082 0.004019964 0.03676251
0.12809682 0.049873307 0.02401268 -0.0145390285 -0.042527292 0.0689502 0.004046911 0.02302389
-0.07981677 -0.022894215 0.038554467 -0.042156223 -0.078179814 0.047699574 -0.06360254 -0.0112546515

conv2.bias f4 [20]
00000000: f608 c9bd d487 46bd dd8a c43c 902e bebc
00000010: 77cc e63b 1766 80bd 8d0f bb3d a0e7 273c
00000020: 8dbb 16bd 9af5 c83b 8a68 e23d 2974 5cbd
00000030: b356 0abc 4920 963c f1ca bf3c 282b 0e3d
00000040: 7d61 ec3b 9be5 073e b72b 933c e57d b4bd
-0.09816162 -0.04846938 0.023991996 -0.023215562 0.007043417 -0.06269472 0.091338255 0.010248095
-0.036799956 0.0061327936 0.110550955 -0.053821716 -0.008443522 0.018325942 0.0234122 0.034709126
0.00721377 0.13271181 0.01796518 -0.08813075

fc1.weight f4 [50, 320]
00000000: d616 0fbc d090 03bd dce5 efbc 6a04 64bb
00000010: fb22 b13b 6bc2 723b 240e 03bd b6bc 20bd
00000020: bf9b ba3b b667 82bd e1e8 8e3d 1bfb 253d
00000030: 81d2 183b 2cda 7f3d bb62 9cbc c55d 9e3c
00000040: 9fd3 3ebd 48da 823b b1ed 0b3d 7fa4 dfbc
00000050: 1de8 683d b6ba 9d3c 7198 413d a1bd 8e3d
00000060: cfc8 38bc e390 8ebc fd12 553d a2ef 0e3c
00000070: 5eb5 89bc f325 6e3c 9a09 20bd 20e9 883d
00000080: cb28 7a3c 7773 dcbb ba09 9fbc b799 93bd
00000090: 6f0e 72bd 1864 3cbd 563e 8a3c 0291 ba3c
000000a0: 6e4d 51bd d6a3 053d 5b75 fcbb ee29 163c
000000b0: 03da e53c a938 87bb 95a2 203b 85a5 9e3d
000000c0: 629d d83b f77c 913d af13 753b 6313 603c
000000d0: 5209 9d3c 3475 18bd ce77 6dbd 3156 87bd
000000e0: 913f 3b3c 472c 45bc 7680 fa3c 234d 2abd
000000f0: b476 babc 0d49 70bc 5aad a73a 2e4a 5cbd
00000100: 3c9f 38bd e46e 023d 826b 73bb f5f9 88bc
00000110: fa2b 6b3d ee92 e7bb 1da3 093d f965 203c
00000120: ad60 683d e9cb 04bc 9ed9 1bbd 830c d3bb
00000130: 7432 20bc 537e dcbc a0c5 a93c 9562 35bd
00000140: ed8a 04bc 3120 a9bd 0919 f13c 7354 35bc
00000150: 9cef 963d 8cbc cd3c 9b1e 44bc 7d49 31bb
00000160: ffe2 b33c f33c 043c 4ff2 7f3c aa07 753c
00000170: b1c1 7abb fc02 a73d d8e5 6dbd 89ac 893c
00000180: aaee bdbc bcba 123c 50d2 22bd 33ca 5fbd
00000190: c647 113d 1734 573b 9b07 ddbb b8e8 34bd
000001a0: a44d a5bc b28f f2bc 297f 523c dfc7 a9bb
000001b0: c382 2abd 5e8e 733d fc55 643d c920 933c
000001c0: f7ae 79bc 244a 68bd f83d f0bc 49aa 3c3b
000001d0: b95f 323d 420f be3b e6ea a53d 2556 a33d
000001e0: eafa 923c 0ae4 0c3d 8d4c b73d acd1 563d
000001f0: 9e86 303d e7bc e63c b216 e03c 6ace f73c
00000200: 18a4 063d 53e1 c13c d066 8abd 838a e23c
00000210: fab1 04bd e92f 63bd 2a49 6d3a cf39 823a
00000220: 4057 033d 4aab a43c 1a2a d53c ba48 5cbc
00000230: 6106 d03c 25eb 39bd f0a5 75bd 49f8 63bc
00000240: 780b 833c 4dcf 273d ae3e 843b dd1b f33c
00000250: 4233 73bc ba06 883b 0cd0 1bbd 424e 48bd
00000260: 6609 e93c 7f88 173d 1fd7 69bc 1a4b f9bc
00000270: 91ad 483d 36eb 0c3d e972 f5bc 7ed5 fdbc
00000280: 8f65 d43c ac45 6bbd ca9f 8a3c dc9a 48b9
00000290: 32c0 c3bc bea2 29bd 4be4 96bc 84ef 873c
000002a0: 2097 ca3c 7e78 1f3b 2eba 01bd 8379 853c
000002b0: eb91 e03b 9fc2 a13c b508 ce3c 53ab 4b3d
000002c0: 4108 123d 6dd2 cabc b738 80bd 130c ee3a
000002d0: 53b9 353c 7ec8 03bd f170 92bc 47a5 a33b
000002e0: f079 78bc 2965 9c3c 87e7 8e3c fca0 06bd
000002f0: a2b7 323d 34dc d7bc ac78 a6bc b9b3 7e3d
00000300: a284 3ebd 30db cebc e808 9abd daef 6bbd
00000310: b70c cb3c 8b2a 5ebc fff8 27bd 0764 9f3c
00000320: 0f6b f7bc 191b 553d dbd2 953d 2c2e 433d
00000330: 9569 113d 6140 04bc edcc 763c 988e bdbc
00000340: 16ed a9bc f708 0fbd a8c0 d1bb ca88 a83b
00000350: 906e 3c3d f67e e93b 59f3 c8bb 11e0 a23c
00000360: aef2 573d a0a3 b1bc 4ed8 57bd 701b 5ebd
00000370: a193 8e3c 6f21 5cbd a816 813b 7faf c83c
00000380: 5bac 833c 68b5 643d 89dc 13bd d923 913d
00000390: 9ce5 7d3d 250b 7bbc 5b63 5eba 2e3e 3cbc
000003a0: 13e0 0ebd 12d5 4dbb db7d 77bc 04ef 59bd
000003b0: 03e8 dd3c cf90 a3bc ed5e a9bc e40a b7bd
000003c0: 2c62 393d 5180 723c f1e7 563c d7a4 bb3c
000003d0: 3600 a8bc ae0a b93b a921 29bc 4361 1e3d
000003e0: 175b 12bc 1284 2439 71d7 463d 4788 aebc
000003f0: 32c3 4abd 2a8f 3dbd 05f8 e3bc 8651 aa3c
-0.008733472 -0.032120526 -0.02928441 -0.003479267 0.0054057813 0.0037042152 -0.031995907 -0.03924247
0.005694836 -0.063674375 0.06978012 0.040522676 0.002331883 0.062463924 -0.019090047 0.019331822
-0.046588536 0.0039933063 0.034162227 -0.027300118 0.056861985 0.01925407 0.04726452 0.069697626
-0.011278345 -0.017403072 0.05202006 0.008724125 -0.016810115 0.014535415 -0.039071657 0.0668509
0.015268515 -0.0067276317 -0.019413818 -0.07207053 -0.059095796 -0.045993894 0.016875427 0.022774223
-0.051099233 0.03262695 -0.0077044195 0.00916527 0.028058058 -0.0041266275 0.002451097 0.07746414
0.0066105584 0.07103913 0.0037395766 0.013676497 0.019169483 -0.03722115 -0.057975583 -0.066082366
0.01142873 -0.012034482 0.030578833 -0.04157747 -0.02276168 -0.014665854 0.0012792752 -0.05378168
-0.045073733 0.031844035 -0.0037142937 -0.016720751 0.057414986 -0.007067076 0.033602823 0.009789937
0.056732822 -0.008105257 -0.038049333 -0.0064407005 -0.009777654 -0.026915705 0.020724118 -0.04428347
-0.008089763 -0.08258093 0.029430883 -0.011067498 0.073699206 0.02511432 -0.011970188 -0.002705186
0.021958826 0.008071172 0.015621736 0.014955441 -0.0038262422 0.08154866 -0.058080524 0.016805904
-0.023185093 0.008955654 -0.03975135 -0.05463619 0.03546884 0.0032837444 -0.0067452914 -0.04416725
-0.020178623 -0.029609535 0.0128477 -0.005181297 -0.04162861 0.059461944 0.055746064 0.01795997
-0.015239469 -0.05671133 -0.029326424 0.0028788021 0.04354832 0.0058001587 0.08101444 0.07975415
0.01794191 0.034397162 0.08950148 0.052446052 0.04309713 0.028166248 0.027354572 0.030249793
0.032871336 0.023667013 -0.06757891 0.027653938 -0.032396294 -0.055465613 0.0009051735 0.0009935441
0.03206563 0.020101208 0.026021052 -0.013445074 0.025393667 -0.045390267 -0.059972703 -0.013914176
0.01599668 0.04096918 0.0040357923 0.029676372 -0.014843764 0.0041511925 -0.038040206 -0.048902757
0.028446864 0.036995407 -0.01427248 -0.030431319 0.04899365 0.034404002 -0.02996202 -0.03098559
0.025927333 -0.05743949 0.016921896 -0.00019131176 -0.023895357 -0.04141497 -0.018419405 0.016593702
0.024730265 0.0024333294 -0.031671695 0.016293293 0.0068533323 0.019746123 0.025150636 0.049723934
0.035652403 -0.024758542 -0.062608175 0.0018161557 0.011091548 -0.032173626 -0.01787612 0.004994068
-0.015165791 0.019091206 0.017444385 -0.03286837 0.043632157 -0.026350118 -0.020321213 0.062183116
-0.046513207 -0.025251001 -0.0752123 -0.057601787 0.024786336 -0.013559948 -0.041008946 0.019456876
-0.030202417 0.052027795 0.07315608 0.047651455 0.03550108 -0.00807199 0.015063507 -0.023139283
-0.020742934 -0.03492066 -0.0064011402 0.0051432597 0.046003878 0.0071257306 -0.006132525 0.019882234
0.05272167 -0.021684468 -0.05269652 -0.054225385 0.01740438 -0.053742822 0.0039394684 0.024497746
0.016073396 0.055837065 -0.03609899 0.070869155 0.06198655 -0.015322481 -0.0008483433 -0.011489434
-0.034881663 -0.0031407517 -0.01510569 -0.05320646 0.02708817 -0.019966511 -0.020675147 -0.08937624
0.04525964 0.014801101 0.013116823 0.02290575 -0.020507913 0.005647025 -0.010322967 0.038666975
-0.00893285 0.00015689459 0.048545305 -0.021305216 -0.04950256 -0.04627911 -0.027828226 0.020790827

fc1.bias f4 [50]
00000000: 51a8 a53b a672 b33c dc64 1ebc 1f65 f03a
00000010: c164 07bd e36a dc3c e97b 193d 098e 503b
00000020: dac4 183e 8e51 f33b 23b9 b3ba 5931 d13c
00000030: 77c6 9d3c 3234 133d 780b 0cbd 1244 ccbc
00000040: 56c3 c5bc 9875 973d e483 043c 0926 81bc
00000050: 1d98 a8bc c6b8 ae3b 6561 3ebd 7cb9 553c
00000060: 60d8 6f3d 1320 ea3d 3d58 0d3d 8a6d deb9
00000070: 9281 8f3c f7d1 753d 6e9f 113c 0781 33bc
00000080: 8bc4 963c 2bd9 b3bc 0c3e 6a3d 2ae8 f3bc
00000090: 580f 233c 46e5 4e3d ae7f 173e 00b4 debc
000000a0: 0887 cc3c ca48 54bc 7fcf 8c3d c3b4 1e3c
000000b0: f80a febc 9710 323d c4f4 083d 6658 84bc
000000c0: 14a7 803d 098f bd3d
0.0050554653 0.021905255 -0.009667601 0.0018340683 -0.03305507 0.026906436 0.037471686 0.003182294
0.14918843 0.0074254936 -0.0013711791 0.025536226 0.019259674 0.03593845 -0.034190625 -0.024934802
-0.024140995 0.07395476 0.008088086 -0.015765207 -0.020580346 0.0053320853 -0.0464796 0.013044711
0.05855596 0.11431899 0.03450798 -0.00042424753 0.017517839 0.06001469 0.008888109 -0.0109560555
0.018404266 -0.02195414 0.05718808 -0.02977379 0.009952389 0.05051162 0.147948 -0.02718544
0.024966732 -0.012956807 0.06875514 0.009686652 -0.03101109 0.043472853 0.03343655 -0.016155433
0.062818676 0.092557974
